…
    target_array = np.vstack(target_array)
ValueError: The truth value of an array with more than one element is ambiguous. Use a.any() or a.all()
2021-05-20 12:00:11.659084: W tensorflow/stream_executor/platform/default/dso_loader.cc:60] Could not load dynamic library 'libcudart.so.11.0'; dlerror: libcudart.so.11.0: cannot open shared object file: No such file or directory
2021-05-20 12:00:11.659139: I tensorflow/stream_executor/cuda/cudart_stub.cc:29] Ignore above cudart dlerror if you do not have a GPU set up on your machine.
Available devices  2
Current cuda device  0
TITAN RTX
CNN_11dv(
  (layer_11d): Sequential(
    (0): Conv2d(1, 10, kernel_size=(3, 1000), stride=(1, 50), padding=(1, 0))
    (1): BatchNorm2d(10, eps=1e-05, momentum=0.1, affine=True, track_running_stats=True)
    (2): ReLU()
    (3): Conv2d(10, 25, kernel_size=(3, 100), stride=(1, 2), padding=(1, 0))
    (4): BatchNorm2d(25, eps=1e-05, momentum=0.1, affine=True, track_running_stats=True)
    (5): ReLU()
    (6): Conv2d(25, 50, kernel_size=(5, 50), stride=(1, 2), padding=(1, 0))
    (7): BatchNorm2d(50, eps=1e-05, momentum=0.1, affine=True, track_running_stats=True)
    (8): ReLU()
    (9): Conv2d(50, 100, kernel_size=(5, 50), stride=(1, 2), padding=(1, 0))
    (10): BatchNorm2d(100, eps=1e-05, momentum=0.1, affine=True, track_running_stats=True)
    (11): ReLU()
    (12): Conv2d(100, 100, kernel_size=(5, 50), stride=(1, 2), padding=(1, 0))
    (13): BatchNorm2d(100, eps=1e-05, momentum=0.1, affine=True, track_running_stats=True)
    (14): ReLU()
  )
  (layer_fc): Sequential(
    (0): Linear(in_features=37500, out_features=1000, bias=True)
    (1): ReLU()
    (2): Linear(in_features=1000, out_features=100, bias=True)
    (3): ReLU()
    (4): Linear(in_features=100, out_features=10, bias=True)
    (5): ReLU()
    (6): Linear(in_features=10, out_features=2, bias=True)
  )
)
180
./Checkpoint/Checkpoint_exp_11d1.pt
epoch: 0  loss: 0.7443363666534424
Validation loss: 0.0178, Validation accuracy: 0.5250
Higher validation accuracy, Checkpoint Saved!
one epoch time = 3.62
########################################################
Validation loss: 0.0178, Validation accuracy: 0.5250
one epoch time = 1.62
########################################################
…
